…
                    "Train Acc {:.4f} | Test Acc {:.4f}".format(
                        itr // batches_per_epoch, batch_time_meter.val, batch_time_meter.avg, f_nfe_meter.avg,
                        b_nfe_meter.avg, train_acc, val_acc
                    )
                )

Namespace(adjoint=False, batch_size=128, data_aug=True, dataset='fasion-mnist', debug=False, downsampling_method='conv', gpu=0, layer_depth=8, lr=0.1, nepochs=160, network='resnet', odesolver='dopri5', odestride=0.001, save='experiments/201910041624/layer8-try10', test_batch_size=1000, tol=0.001, uniform=True)
Sequential(
  (0): Conv2d(1, 64, kernel_size=(3, 3), stride=(1, 1))
  (1): GroupNorm(32, 64, eps=1e-05, affine=True)
  (2): ReLU(inplace=True)
  (3): Conv2d(64, 64, kernel_size=(4, 4), stride=(2, 2), padding=(1, 1))
  (4): GroupNorm(32, 64, eps=1e-05, affine=True)
  (5): ReLU(inplace=True)
  (6): Conv2d(64, 64, kernel_size=(4, 4), stride=(2, 2), padding=(1, 1))
  (7): ResBlock(
    (norm1): GroupNorm(32, 64, eps=1e-05, affine=True)
    (relu): ReLU(inplace=True)
    (conv1): Conv2d(64, 64, kernel_size=(3, 3), stride=(1, 1), padding=(1, 1), bias=False)
    (norm2): GroupNorm(32, 64, eps=1e-05, affine=True)
    (conv2): Conv2d(64, 64, kernel_size=(3, 3), stride=(1, 1), padding=(1, 1), bias=False)
  )
  (8): ResBlock(
    (norm1): GroupNorm(32, 64, eps=1e-05, affine=True)
    (relu): ReLU(inplace=True)
    (conv1): Conv2d(64, 64, kernel_size=(3, 3), stride=(1, 1), padding=(1, 1), bias=False)
    (norm2): GroupNorm(32, 64, eps=1e-05, affine=True)
    (conv2): Conv2d(64, 64, kernel_size=(3, 3), stride=(1, 1), padding=(1, 1), bias=False)
  )
  (9): ResBlock(
    (norm1): GroupNorm(32, 64, eps=1e-05, affine=True)
    (relu): ReLU(inplace=True)
    (conv1): Conv2d(64, 64, kernel_size=(3, 3), stride=(1, 1), padding=(1, 1), bias=False)
    (norm2): GroupNorm(32, 64, eps=1e-05, affine=True)
    (conv2): Conv2d(64, 64, kernel_size=(3, 3), stride=(1, 1), padding=(1, 1), bias=False)
  )
  (10): ResBlock(
    (norm1): GroupNorm(32, 64, eps=1e-05, affine=True)
    (relu): ReLU(inplace=True)
    (conv1): Conv2d(64, 64, kernel_size=(3, 3), stride=(1, 1), padding=(1, 1), bias=False)
    (norm2): GroupNorm(32, 64, eps=1e-05, affine=True)
    (conv2): Conv2d(64, 64, kernel_size=(3, 3), stride=(1, 1), padding=(1, 1), bias=False)
  )
  (11): ResBlock(
    (norm1): GroupNorm(32, 64, eps=1e-05, affine=True)
    (relu): ReLU(inplace=True)
    (conv1): Conv2d(64, 64, kernel_size=(3, 3), stride=(1, 1), padding=(1, 1), bias=False)
    (norm2): GroupNorm(32, 64, eps=1e-05, affine=True)
    (conv2): Conv2d(64, 64, kernel_size=(3, 3), stride=(1, 1), padding=(1, 1), bias=False)
  )
  (12): ResBlock(
    (norm1): GroupNorm(32, 64, eps=1e-05, affine=True)
    (relu): ReLU(inplace=True)
    (conv1): Conv2d(64, 64, kernel_size=(3, 3), stride=(1, 1), padding=(1, 1), bias=False)
    (norm2): GroupNorm(32, 64, eps=1e-05, affine=True)
    (conv2): Conv2d(64, 64, kernel_size=(3, 3), stride=(1, 1), padding=(1, 1), bias=False)
  )
  (13): ResBlock(
    (norm1): GroupNorm(32, 64, eps=1e-05, affine=True)
    (relu): ReLU(inplace=True)
    (conv1): Conv2d(64, 64, kernel_size=(3, 3), stride=(1, 1), padding=(1, 1), bias=False)
    (norm2): GroupNorm(32, 64, eps=1e-05, affine=True)
    (conv2): Conv2d(64, 64, kernel_size=(3, 3), stride=(1, 1), padding=(1, 1), bias=False)
  )
  (14): ResBlock(
    (norm1): GroupNorm(32, 64, eps=1e-05, affine=True)
    (relu): ReLU(inplace=True)
    (conv1): Conv2d(64, 64, kernel_size=(3, 3), stride=(1, 1), padding=(1, 1), bias=False)
    (norm2): GroupNorm(32, 64, eps=1e-05, affine=True)
    (conv2): Conv2d(64, 64, kernel_size=(3, 3), stride=(1, 1), padding=(1, 1), bias=False)
  )
  (15): GroupNorm(32, 64, eps=1e-05, affine=True)
  (16): ReLU(inplace=True)
  (17): AdaptiveAvgPool2d(output_size=(1, 1))
  (18): Flatten()
  (19): Linear(in_features=64, out_features=10, bias=True)
)
Number of parameters: 724746
Uniform switch is on.
Some layers are share parameters.
Epoch 0000 | Time 0.081 (0.081) | NFE-F 0.0 | NFE-B 0.0 | Train Acc 0.1000 | Test Acc 0.1003
Epoch 0001 | Time 0.104 (0.020) | NFE-F 0.0 | NFE-B 0.0 | Train Acc 0.7228 | Test Acc 0.7209
Epoch 0002 | Time 0.098 (0.019) | NFE-F 0.0 | NFE-B 0.0 | Train Acc 0.8460 | Test Acc 0.8361
…
