…
                    "Train Acc {:.4f} | Test Acc {:.4f}".format(
                        itr // batches_per_epoch, batch_time_meter.val, batch_time_meter.avg, f_nfe_meter.avg,
                        b_nfe_meter.avg, train_acc, val_acc
                    )
                )

Namespace(adjoint=False, batch_size=128, data_aug=True, dataset='fasion-mnist', debug=False, downsampling_method='conv', gpu=0, layer_depth=40, lr=0.1, nepochs=160, network='resnet', odesolver='dopri5', odestride=0.001, save='experiments/201910231727/layer40-try7', test_batch_size=1000, tol=0.001, uniform=True)
Sequential(
  (0): Conv2d(1, 64, kernel_size=(3, 3), stride=(1, 1))
  (1): GroupNorm(32, 64, eps=1e-05, affine=True)
  (2): ReLU(inplace=True)
  (3): Conv2d(64, 64, kernel_size=(4, 4), stride=(2, 2), padding=(1, 1))
  (4): GroupNorm(32, 64, eps=1e-05, affine=True)
  (5): ReLU(inplace=True)
  (6): Conv2d(64, 64, kernel_size=(4, 4), stride=(2, 2), padding=(1, 1))
  (7): ResBlock(
    (norm1): GroupNorm(32, 64, eps=1e-05, affine=True)
    (relu): ReLU(inplace=True)
    (conv1): Conv2d(64, 64, kernel_size=(3, 3), stride=(1, 1), padding=(1, 1), bias=False)
    (norm2): GroupNorm(32, 64, eps=1e-05, affine=True)
    (conv2): Conv2d(64, 64, kernel_size=(3, 3), stride=(1, 1), padding=(1, 1), bias=False)
  )
  (8): ResBlock(
    (norm1): GroupNorm(32, 64, eps=1e-05, affine=True)
    (relu): ReLU(inplace=True)
    (conv1): Conv2d(64, 64, kernel_size=(3, 3), stride=(1, 1), padding=(1, 1), bias=False)
    (norm2): GroupNorm(32, 64, eps=1e-05, affine=True)
    (conv2): Conv2d(64, 64, kernel_size=(3, 3), stride=(1, 1), padding=(1, 1), bias=False)
  )
  (9): ResBlock(
    (norm1): GroupNorm(32, 64, eps=1e-05, affine=True)
    (relu): ReLU(inplace=True)
    (conv1): Conv2d(64, 64, kernel_size=(3, 3), stride=(1, 1), padding=(1, 1), bias=False)
    (norm2): GroupNorm(32, 64, eps=1e-05, affine=True)
    (conv2): Conv2d(64, 64, kernel_size=(3, 3), stride=(1, 1), padding=(1, 1), bias=False)
  )
  (10): ResBlock(
    (norm1): GroupNorm(32, 64, eps=1e-05, affine=True)
    (relu): ReLU(inplace=True)
    (conv1): Conv2d(64, 64, kernel_size=(3, 3), stride=(1, 1), padding=(1, 1), bias=False)
    (norm2): GroupNorm(32, 64, eps=1e-05, affine=True)
    (conv2): Conv2d(64, 64, kernel_size=(3, 3), stride=(1, 1), padding=(1, 1), bias=False)
  )
  (11): ResBlock(
    (norm1): GroupNorm(32, 64, eps=1e-05, affine=True)
    (relu): ReLU(inplace=True)
    (conv1): Conv2d(64, 64, kernel_size=(3, 3), stride=(1, 1), padding=(1, 1), bias=False)
    (norm2): GroupNorm(32, 64, eps=1e-05, affine=True)
    (conv2): Conv2d(64, 64, kernel_size=(3, 3), stride=(1, 1), padding=(1, 1), bias=False)
  )
  (12): ResBlock(
    (norm1): GroupNorm(32, 64, eps=1e-05, affine=True)
    (relu): ReLU(inplace=True)
    (conv1): Conv2d(64, 64, kernel_size=(3, 3), stride=(1, 1), padding=(1, 1), bias=False)
    (norm2): GroupNorm(32, 64, eps=1e-05, affine=True)
    (conv2): Conv2d(64, 64, kernel_size=(3, 3), stride=(1, 1), padding=(1, 1), bias=False)
  )
  (13): ResBlock(
    (norm1): GroupNorm(32, 64, eps=1e-05, affine=True)
    (relu): ReLU(inplace=True)
    (conv1): Conv2d(64, 64, kernel_size=(3, 3), stride=(1, 1), padding=(1, 1), bias=False)
    (norm2): GroupNorm(32, 64, eps=1e-05, affine=True)
    (conv2): Conv2d(64, 64, kernel_size=(3, 3), stride=(1, 1), padding=(1, 1), bias=False)
  )
  (14): ResBlock(
    (norm1): GroupNorm(32, 64, eps=1e-05, affine=True)
    (relu): ReLU(inplace=True)
    (conv1): Conv2d(64, 64, kernel_size=(3, 3), stride=(1, 1), padding=(1, 1), bias=False)
    (norm2): GroupNorm(32, 64, eps=1e-05, affine=True)
    (conv2): Conv2d(64, 64, kernel_size=(3, 3), stride=(1, 1), padding=(1, 1), bias=False)
  )
  (15): ResBlock(
    (norm1): GroupNorm(32, 64, eps=1e-05, affine=True)
    (relu): ReLU(inplace=True)
    (conv1): Conv2d(64, 64, kernel_size=(3, 3), stride=(1, 1), padding=(1, 1), bias=False)
    (norm2): GroupNorm(32, 64, eps=1e-05, affine=True)
    (conv2): Conv2d(64, 64, kernel_size=(3, 3), stride=(1, 1), padding=(1, 1), bias=False)
  )
  (16): ResBlock(
    (norm1): GroupNorm(32, 64, eps=1e-05, affine=True)
    (relu): ReLU(inplace=True)
    (conv1): Conv2d(64, 64, kernel_size=(3, 3), stride=(1, 1), padding=(1, 1), bias=False)
    (norm2): GroupNorm(32, 64, eps=1e-05, affine=True)
    (conv2): Conv2d(64, 64, kernel_size=(3, 3), stride=(1, 1), padding=(1, 1), bias=False)
  )
  (17): ResBlock(
    (norm1): GroupNorm(32, 64, eps=1e-05, affine=True)
    (relu): ReLU(inplace=True)
    (conv1): Conv2d(64, 64, kernel_size=(3, 3), stride=(1, 1), padding=(1, 1), bias=False)
    (norm2): GroupNorm(32, 64, eps=1e-05, affine=True)
    (conv2): Conv2d(64, 64, kernel_size=(3, 3), stride=(1, 1), padding=(1, 1), bias=False)
  )
  (18): ResBlock(
    (norm1): GroupNorm(32, 64, eps=1e-05, affine=True)
    (relu): ReLU(inplace=True)
    (conv1): Conv2d(64, 64, kernel_size=(3, 3), stride=(1, 1), padding=(1, 1), bias=False)
    (norm2): GroupNorm(32, 64, eps=1e-05, affine=True)
    (conv2): Conv2d(64, 64, kernel_size=(3, 3), stride=(1, 1), padding=(1, 1), bias=False)
  )
  (19): ResBlock(
    (norm1): GroupNorm(32, 64, eps=1e-05, affine=True)
    (relu): ReLU(inplace=True)
    (conv1): Conv2d(64, 64, kernel_size=(3, 3), stride=(1, 1), padding=(1, 1), bias=False)
    (norm2): GroupNorm(32, 64, eps=1e-05, affine=True)
    (conv2): Conv2d(64, 64, kernel_size=(3, 3), stride=(1, 1), padding=(1, 1), bias=False)
  )
  (20): ResBlock(
    (norm1): GroupNorm(32, 64, eps=1e-05, affine=True)
    (relu): ReLU(inplace=True)
    (conv1): Conv2d(64, 64, kernel_size=(3, 3), stride=(1, 1), padding=(1, 1), bias=False)
    (norm2): GroupNorm(32, 64, eps=1e-05, affine=True)
    (conv2): Conv2d(64, 64, kernel_size=(3, 3), stride=(1, 1), padding=(1, 1), bias=False)
  )
  (21): ResBlock(
    (norm1): GroupNorm(32, 64, eps=1e-05, affine=True)
    (relu): ReLU(inplace=True)
    (conv1): Conv2d(64, 64, kernel_size=(3, 3), stride=(1, 1), padding=(1, 1), bias=False)
    (norm2): GroupNorm(32, 64, eps=1e-05, affine=True)
    (conv2): Conv2d(64, 64, kernel_size=(3, 3), stride=(1, 1), padding=(1, 1), bias=False)
  )
  (22): ResBlock(
    (norm1): GroupNorm(32, 64, eps=1e-05, affine=True)
    (relu): ReLU(inplace=True)
    (conv1): Conv2d(64, 64, kernel_size=(3, 3), stride=(1, 1), padding=(1, 1), bias=False)
    (norm2): GroupNorm(32, 64, eps=1e-05, affine=True)
    (conv2): Conv2d(64, 64, kernel_size=(3, 3), stride=(1, 1), padding=(1, 1), bias=False)
  )
  (23): ResBlock(
    (norm1): GroupNorm(32, 64, eps=1e-05, affine=True)
    (relu): ReLU(inplace=True)
    (conv1): Conv2d(64, 64, kernel_size=(3, 3), stride=(1, 1), padding=(1, 1), bias=False)
    (norm2): GroupNorm(32, 64, eps=1e-05, affine=True)
    (conv2): Conv2d(64, 64, kernel_size=(3, 3), stride=(1, 1), padding=(1, 1), bias=False)
  )
  (24): ResBlock(
    (norm1): GroupNorm(32, 64, eps=1e-05, affine=True)
    (relu): ReLU(inplace=True)
    (conv1): Conv2d(64, 64, kernel_size=(3, 3), stride=(1, 1), padding=(1, 1), bias=False)
    (norm2): GroupNorm(32, 64, eps=1e-05, affine=True)
    (conv2): Conv2d(64, 64, kernel_size=(3, 3), stride=(1, 1), padding=(1, 1), bias=False)
  )
  (25): ResBlock(
    (norm1): GroupNorm(32, 64, eps=1e-05, affine=True)
    (relu): ReLU(inplace=True)
    (conv1): Conv2d(64, 64, kernel_size=(3, 3), stride=(1, 1), padding=(1, 1), bias=False)
    (norm2): GroupNorm(32, 64, eps=1e-05, affine=True)
    (conv2): Conv2d(64, 64, kernel_size=(3, 3), stride=(1, 1), padding=(1, 1), bias=False)
  )
  (26): ResBlock(
    (norm1): GroupNorm(32, 64, eps=1e-05, affine=True)
    (relu): ReLU(inplace=True)
    (conv1): Conv2d(64, 64, kernel_size=(3, 3), stride=(1, 1), padding=(1, 1), bias=False)
    (norm2): GroupNorm(32, 64, eps=1e-05, affine=True)
    (conv2): Conv2d(64, 64, kernel_size=(3, 3), stride=(1, 1), padding=(1, 1), bias=False)
  )
  (27): ResBlock(
    (norm1): GroupNorm(32, 64, eps=1e-05, affine=True)
    (relu): ReLU(inplace=True)
    (conv1): Conv2d(64, 64, kernel_size=(3, 3), stride=(1, 1), padding=(1, 1), bias=False)
    (norm2): GroupNorm(32, 64, eps=1e-05, affine=True)
    (conv2): Conv2d(64, 64, kernel_size=(3, 3), stride=(1, 1), padding=(1, 1), bias=False)
  )
  (28): ResBlock(
    (norm1): GroupNorm(32, 64, eps=1e-05, affine=True)
    (relu): ReLU(inplace=True)
    (conv1): Conv2d(64, 64, kernel_size=(3, 3), stride=(1, 1), padding=(1, 1), bias=False)
    (norm2): GroupNorm(32, 64, eps=1e-05, affine=True)
    (conv2): Conv2d(64, 64, kernel_size=(3, 3), stride=(1, 1), padding=(1, 1), bias=False)
  )
  (29): ResBlock(
    (norm1): GroupNorm(32, 64, eps=1e-05, affine=True)
    (relu): ReLU(inplace=True)
    (conv1): Conv2d(64, 64, kernel_size=(3, 3), stride=(1, 1), padding=(1, 1), bias=False)
    (norm2): GroupNorm(32, 64, eps=1e-05, affine=True)
    (conv2): Conv2d(64, 64, kernel_size=(3, 3), stride=(1, 1), padding=(1, 1), bias=False)
  )
  (30): ResBlock(
    (norm1): GroupNorm(32, 64, eps=1e-05, affine=True)
    (relu): ReLU(inplace=True)
    (conv1): Conv2d(64, 64, kernel_size=(3, 3), stride=(1, 1), padding=(1, 1), bias=False)
    (norm2): GroupNorm(32, 64, eps=1e-05, affine=True)
    (conv2): Conv2d(64, 64, kernel_size=(3, 3), stride=(1, 1), padding=(1, 1), bias=False)
  )
  (31): ResBlock(
    (norm1): GroupNorm(32, 64, eps=1e-05, affine=True)
    (relu): ReLU(inplace=True)
    (conv1): Conv2d(64, 64, kernel_size=(3, 3), stride=(1, 1), padding=(1, 1), bias=False)
    (norm2): GroupNorm(32, 64, eps=1e-05, affine=True)
    (conv2): Conv2d(64, 64, kernel_size=(3, 3), stride=(1, 1), padding=(1, 1), bias=False)
  )
  (32): ResBlock(
    (norm1): GroupNorm(32, 64, eps=1e-05, affine=True)
    (relu): ReLU(inplace=True)
    (conv1): Conv2d(64, 64, kernel_size=(3, 3), stride=(1, 1), padding=(1, 1), bias=False)
    (norm2): GroupNorm(32, 64, eps=1e-05, affine=True)
    (conv2): Conv2d(64, 64, kernel_size=(3, 3), stride=(1, 1), padding=(1, 1), bias=False)
  )
  (33): ResBlock(
    (norm1): GroupNorm(32, 64, eps=1e-05, affine=True)
    (relu): ReLU(inplace=True)
    (conv1): Conv2d(64, 64, kernel_size=(3, 3), stride=(1, 1), padding=(1, 1), bias=False)
    (norm2): GroupNorm(32, 64, eps=1e-05, affine=True)
    (conv2): Conv2d(64, 64, kernel_size=(3, 3), stride=(1, 1), padding=(1, 1), bias=False)
  )
  (34): ResBlock(
    (norm1): GroupNorm(32, 64, eps=1e-05, affine=True)
    (relu): ReLU(inplace=True)
    (conv1): Conv2d(64, 64, kernel_size=(3, 3), stride=(1, 1), padding=(1, 1), bias=False)
    (norm2): GroupNorm(32, 64, eps=1e-05, affine=True)
    (conv2): Conv2d(64, 64, kernel_size=(3, 3), stride=(1, 1), padding=(1, 1), bias=False)
  )
  (35): ResBlock(
    (norm1): GroupNorm(32, 64, eps=1e-05, affine=True)
    (relu): ReLU(inplace=True)
    (conv1): Conv2d(64, 64, kernel_size=(3, 3), stride=(1, 1), padding=(1, 1), bias=False)
    (norm2): GroupNorm(32, 64, eps=1e-05, affine=True)
    (conv2): Conv2d(64, 64, kernel_size=(3, 3), stride=(1, 1), padding=(1, 1), bias=False)
  )
  (36): ResBlock(
    (norm1): GroupNorm(32, 64, eps=1e-05, affine=True)
    (relu): ReLU(inplace=True)
    (conv1): Conv2d(64, 64, kernel_size=(3, 3), stride=(1, 1), padding=(1, 1), bias=False)
    (norm2): GroupNorm(32, 64, eps=1e-05, affine=True)
    (conv2): Conv2d(64, 64, kernel_size=(3, 3), stride=(1, 1), padding=(1, 1), bias=False)
  )
  (37): ResBlock(
    (norm1): GroupNorm(32, 64, eps=1e-05, affine=True)
    (relu): ReLU(inplace=True)
    (conv1): Conv2d(64, 64, kernel_size=(3, 3), stride=(1, 1), padding=(1, 1), bias=False)
    (norm2): GroupNorm(32, 64, eps=1e-05, affine=True)
    (conv2): Conv2d(64, 64, kernel_size=(3, 3), stride=(1, 1), padding=(1, 1), bias=False)
  )
  (38): ResBlock(
    (norm1): GroupNorm(32, 64, eps=1e-05, affine=True)
    (relu): ReLU(inplace=True)
    (conv1): Conv2d(64, 64, kernel_size=(3, 3), stride=(1, 1), padding=(1, 1), bias=False)
    (norm2): GroupNorm(32, 64, eps=1e-05, affine=True)
    (conv2): Conv2d(64, 64, kernel_size=(3, 3), stride=(1, 1), padding=(1, 1), bias=False)
  )
  (39): ResBlock(
    (norm1): GroupNorm(32, 64, eps=1e-05, affine=True)
    (relu): ReLU(inplace=True)
    (conv1): Conv2d(64, 64, kernel_size=(3, 3), stride=(1, 1), padding=(1, 1), bias=False)
    (norm2): GroupNorm(32, 64, eps=1e-05, affine=True)
    (conv2): Conv2d(64, 64, kernel_size=(3, 3), stride=(1, 1), padding=(1, 1), bias=False)
  )
  (40): ResBlock(
    (norm1): GroupNorm(32, 64, eps=1e-05, affine=True)
    (relu): ReLU(inplace=True)
    (conv1): Conv2d(64, 64, kernel_size=(3, 3), stride=(1, 1), padding=(1, 1), bias=False)
    (norm2): GroupNorm(32, 64, eps=1e-05, affine=True)
    (conv2): Conv2d(64, 64, kernel_size=(3, 3), stride=(1, 1), padding=(1, 1), bias=False)
  )
  (41): ResBlock(
    (norm1): GroupNorm(32, 64, eps=1e-05, affine=True)
    (relu): ReLU(inplace=True)
    (conv1): Conv2d(64, 64, kernel_size=(3, 3), stride=(1, 1), padding=(1, 1), bias=False)
    (norm2): GroupNorm(32, 64, eps=1e-05, affine=True)
    (conv2): Conv2d(64, 64, kernel_size=(3, 3), stride=(1, 1), padding=(1, 1), bias=False)
  )
  (42): ResBlock(
    (norm1): GroupNorm(32, 64, eps=1e-05, affine=True)
    (relu): ReLU(inplace=True)
    (conv1): Conv2d(64, 64, kernel_size=(3, 3), stride=(1, 1), padding=(1, 1), bias=False)
    (norm2): GroupNorm(32, 64, eps=1e-05, affine=True)
    (conv2): Conv2d(64, 64, kernel_size=(3, 3), stride=(1, 1), padding=(1, 1), bias=False)
  )
  (43): ResBlock(
    (norm1): GroupNorm(32, 64, eps=1e-05, affine=True)
    (relu): ReLU(inplace=True)
    (conv1): Conv2d(64, 64, kernel_size=(3, 3), stride=(1, 1), padding=(1, 1), bias=False)
    (norm2): GroupNorm(32, 64, eps=1e-05, affine=True)
    (conv2): Conv2d(64, 64, kernel_size=(3, 3), stride=(1, 1), padding=(1, 1), bias=False)
  )
  (44): ResBlock(
    (norm1): GroupNorm(32, 64, eps=1e-05, affine=True)
    (relu): ReLU(inplace=True)
    (conv1): Conv2d(64, 64, kernel_size=(3, 3), stride=(1, 1), padding=(1, 1), bias=False)
    (norm2): GroupNorm(32, 64, eps=1e-05, affine=True)
    (conv2): Conv2d(64, 64, kernel_size=(3, 3), stride=(1, 1), padding=(1, 1), bias=False)
  )
  (45): ResBlock(
    (norm1): GroupNorm(32, 64, eps=1e-05, affine=True)
    (relu): ReLU(inplace=True)
    (conv1): Conv2d(64, 64, kernel_size=(3, 3), stride=(1, 1), padding=(1, 1), bias=False)
    (norm2): GroupNorm(32, 64, eps=1e-05, affine=True)
    (conv2): Conv2d(64, 64, kernel_size=(3, 3), stride=(1, 1), padding=(1, 1), bias=False)
  )
  (46): ResBlock(
    (norm1): GroupNorm(32, 64, eps=1e-05, affine=True)
    (relu): ReLU(inplace=True)
    (conv1): Conv2d(64, 64, kernel_size=(3, 3), stride=(1, 1), padding=(1, 1), bias=False)
    (norm2): GroupNorm(32, 64, eps=1e-05, affine=True)
    (conv2): Conv2d(64, 64, kernel_size=(3, 3), stride=(1, 1), padding=(1, 1), bias=False)
  )
  (47): GroupNorm(32, 64, eps=1e-05, affine=True)
  (48): ReLU(inplace=True)
  (49): AdaptiveAvgPool2d(output_size=(1, 1))
  (50): Flatten()
  (51): Linear(in_features=64, out_features=10, bias=True)
)
Number of parameters: 3092234
Uniform switch is on.
Some layers are share parameters.
Epoch 0000 | Time 0.111 (0.111) | NFE-F 0.0 | NFE-B 0.0 | Train Acc 0.1058 | Test Acc 0.1073
Epoch 0001 | Time 0.132 (0.062) | NFE-F 0.0 | NFE-B 0.0 | Train Acc 0.7768 | Test Acc 0.7760
Epoch 0002 | Time 0.129 (0.062) | NFE-F 0.0 | NFE-B 0.0 | Train Acc 0.8269 | Test Acc 0.8216
…
